11hard_B.pth (torch, 1915 bytes, 3 tensors)

c f4 [11]
94.691696 118.52441 65.871216 63.34533 54.181446 104.98444 53.230778 55.47881
64.894 94.57418 92.19393
00000000: 2662 bd42 7f0c ed42 10be 8342 9e61 7d42
00000010: cdb9 5842 09f8 d142 51ec 5442 4dea 5d42
00000020: bac9 8142 fb25 bd42 4b63 b842

w f4 [11, 11]
4.8186555 -134.38713 73.83526 74.1677 36.859962 62.72183 76.95461 -2.932926
131.13899 28.19853 86.7815 -0.09720715 -134.85103 91.049355 99.004745 -8.027545
-19.912031 67.426765 -1.9141133 -60.82927 -76.22843 99.49515 10.099995 -31.839012
-8.915572 1.2812976 -67.76956 -7.221494 -77.85383 -29.153303 14.041619 27.430326
23.219318 -0.081129715 -136.21417 40.831177 49.759686 -13.571159 7.486859 11.570934
0.43399638 18.77763 -10.542285 73.75877 -0.19839709 -122.96318 36.177917 43.973316
-6.5646653 4.1586494 26.617662 2.808928 142.54306 17.854734 62.544098 2.7327852
-131.10869 71.545975 89.86713 -50.747517 -13.98352 46.794468 -2.2557852 15.897427
-73.30098 85.99732 4.693125 -127.3744 45.809917 40.300526 -11.963142 9.322812
16.201641 1.9870632 122.888245 23.539703 63.588432 4.1905246 -128.05693 41.48728
43.581215 -12.593816 7.3630943 12.717775 1.8103689 122.3233 18.034452 66.02002
-0.084180474 -136.92372 41.503883 50.422707 -13.656288 7.626608 11.084872 0.13700879
16.509624 -10.3063345 73.690926 5.684852 -129.0262 74.13033 80.63871 23.826168
33.455334 66.47616 -2.836735 124.686165 -11.420948 89.02526 -5.904542 -125.409515
63.693104 73.73309 -15.367411 -3.1594784 -29.801435 0.3235282 19.962683 34.291702
69.29076
00000000: 6d32 9a40 1b63 06c3 a7ab 9342 dd55 9442
00000010: 9a70 1342 27e3 7a42 c3e8 9942 0fb5 3bc0
00000020: 9523 0343 9796 e141 2190 ad42 8b14 c7bd
00000030: ddd9 06c3 4519 b642 6e02 c642 d370 00c1
00000040: d74b 9fc1 81da 8642 aa01 f5bf 2c51 73c2
00000050: f574 98c2 84fd c642 9499 2141 4cb6 fec1
00000060: 2fa6 0ec1 8f01 a43f 048a 87c2 7b16 e7c0
00000070: 29b5 9bc2 f739 e9c1 79aa 6041 4f71 db41
00000080: 2ac1 b941 5627 a6bd d436 08c3 2053 2342
00000090: eb09 4742 7823 59c1 5994 ef40 8c22 3941
000000a0: c634 de3e 9638 9641 33ad 28c1 7e84 9342
000000b0: 9b28 4bbe 26ed f5c2 30b6 1042 ade4 2f42
000000c0: bd11 d2c0 a813 8540 f9f0 d441 7ac5 3340
000000d0: 068b 0e43 7fd6 8e41 282d 7a42 f4e5 2e40
000000e0: d31b 03c3 8a17 8f42 f8bb b342 75fd 4ac2
000000f0: 7fbc 5fc1 892d 3b42 c95e 10c0 dc5b 7e41
00000100: 1a9a 92c2 a1fe ab42 142e 9640 b1bf fec2
00000110: 5b3d 3742 bd33 2142 0869 3fc1 3d2a 1541
00000120: f69c 8141 1658 fe3f c8c6 f542 5051 bc41
00000130: 8e5a 7e42 c718 8640 930e 00c3 faf2 2542
00000140: 2a53 2e42 4580 49c1 789e eb40 027c 4b41
00000150: 2bba e73f 88a5 f442 8f46 9041 400a 8442
00000160: d066 acbd 79ec 08c3 fa03 2642 dab0 4942
00000170: 2880 5ac1 2c0d f440 a35b 3141 084c 0c3e
00000180: b613 8441 bfe6 24c1 c161 9342 4fea b540
00000190: b506 01c3 bb42 9442 0547 a142 fe9b be41
000001a0: 43d2 0542 cbf3 8442 118d 35c0 515f f942
000001b0: 34bc 36c1 ef0c b242 02f2 bcc0 acd1 fac2
000001c0: bdc5 7e42 5877 9342 eae0 75c1 e534 4ac0
000001d0: 5769 eec1 7da5 a53e 93b3 9f41 b42a 0942
000001e0: de94 8a42

b_inside f4 [11]
-11.475313 -5.0557313 22.020168 -4.774307 -5.845813 -6.2961826 -7.9019327 -7.6618404
-4.6003914 -9.938903 -2.5831695
00000000: e29a 37c1 8dc8 a1c0 4e29 b041 1fc7 98c0
00000010: e610 bbc0 547a c9c0 a2dc fcc0 cc2d f5c0
00000020: 6836 93c0 bf05 1fc1 a652 25c0
