14_2.pth (torch, 2427 bytes, 3 tensors)

c f4 [20]
0	0x4281d281	64.91114
1	0x427e6d2a	63.606606
2	0x428b3f13	69.62319
3	0x427052f8	60.081024
4	0x42951663	74.543724
5	0x4292a618	73.3244
6	0x423bdf79	46.968235
7	0x4252c73b	52.69456
8	0x427acc5f	62.69958
9	0x42849c6b	66.305504
10	0x4281171c	64.545135
11	0x42886dea	68.214676
12	0x427becf8	62.981415
13	0x42917b4d	72.74082
14	0x4266d5cc	57.708786
15	0x42767e4d	61.62334
16	0x42895ec5	68.6851
17	0x427f9f4f	63.905575
18	0x429577ef	74.734245
19	0x42841a98	66.05194

w f4 [20, 11]
0	0xbedba3db	-0.4289845
1	0xc2ab3e7c	-85.62204
2	0x42466f21	49.608524
3	0x4206e6ba	33.72532
4	0xc141b7ef	-12.107406
5	0xbeda540b	-0.42642245
6	0x41056777	8.33776
7	0xbf69949f	-0.912424
8	0xc13da29d	-11.8522005
9	0xc0b528a4	-5.661211
10	0x428952ea	68.66194
11	0x402271ce	2.538196
12	0xc297c719	-75.88886
13	0x420837df	34.05456
14	0x4223f23c	40.986557
15	0xc224a7f6	-41.164024
16	0x41c234cc	24.27578
17	0xc2527057	-52.609707
18	0x40b97873	5.7959533
19	0xc1d5cdd9	-26.725512
20	0xc206671a	-33.600685
21	0x428f512c	71.65854
22	0xbfa10b29	-1.2581531
23	0xc2acaa9b	-86.33321
24	0x423e200b	47.531292
25	0x42021416	32.519615
26	0xc1749f2f	-15.288863
27	0x3f59e1a0	0.851099
28	0x40fb534d	7.8539186
29	0xbf367616	-0.71273935
30	0xc164c472	-14.29796
31	0xc24de8e0	-51.477417
32	0x428d8fe1	70.78101
33	0xbece74a3	-0.40323362
34	0xc2a939e4	-84.61307
35	0x42260ca3	41.51234
36	0x41eff9e1	29.997011
37	0xc1bacbcd	-23.349512
38	0xbf905ca1	-1.1278268
39	0xc1252c3a	-10.3232975
40	0xbed45196	-0.41468495
41	0xc19a1f3c	-19.265251
42	0xc18fa89f	-17.957335
43	0x4287c906	67.892624
44	0xbfdfe5a1	-1.7491952
45	0xc2acdd95	-86.43278
46	0x42520efc	52.514633
47	0x42076ab2	33.854195
48	0xc12ef7c9	-10.935494
49	0x4002ca8b	2.0436122
50	0x4120c284	10.047489
51	0xbf46d96c	-0.7767551
52	0xc13b2951	-11.697587
53	0xc25ec857	-55.695644
54	0x4290f08a	72.4698
55	0xbfd54200	-1.6660767
56	0xc2ad6aea	-86.70882
57	0x423ef8f4	47.74312
58	0x42006fce	32.109184
59	0xc17a4d86	-15.643927
60	0x4008a8a0	2.135292
61	0x410bd8be	8.740416
62	0xbf2597d5	-0.646848
63	0xc1a1000d	-20.125025
64	0xc25fd5d2	-55.95881
65	0x428e52bb	71.16158
66	0x40d201bd	6.562712
67	0xc2a90c1e	-84.52367
68	0x421ce979	39.228
69	0x41ff3a91	31.903597
70	0xc1c31acc	-24.388084
71	0x408cb649	4.3972516
72	0xc20599cc	-33.400192
73	0x3fb3413f	1.4004287
74	0x40f75ddc	7.7302074
75	0x426f2e6b	59.79533
76	0x4282f1db	65.472374
77	0x410ddc50	8.866287
78	0xc29a67fd	-77.2031
79	0x41bdeae6	23.739697
80	0x420d9397	35.39413
81	0xc1925ee5	-18.296335
82	0x41c580aa	24.687824
83	0xc29bcb73	-77.89736
84	0xc1b46de7	-22.553663
85	0xc241d039	-48.453342
86	0x4202dc47	32.715115
87	0x423daa6e	47.416435
88	0x40031ef1	2.0487635
89	0xc2ada7d5	-86.8278
90	0x425d899b	55.38438
91	0x422ce43a	43.222878
92	0xc10a00ee	-8.625227
93	0xc164bac3	-14.295596
94	0xc2056c44	-33.35573
95	0xbf30e1ec	-0.6909473
96	0x429d5fff	78.68749
97	0x42657cd2	57.371895
98	0x42704d10	60.075256
99	0x3f91a8b6	1.1379611
100	0xc2ad05b8	-86.51117
101	0x426fb03c	59.922104
102	0x422a1ee0	42.53015
103	0xc009f1a9	-2.1553748
104	0xc10c221e	-8.758329
105	0xc1c50d6b	-24.631552
106	0xbf6f09d4	-0.9337437
107	0x42a4aee4	82.34158
108	0x425d6e23	55.357555
109	0x427eb1c6	63.673607
110	0x3fc4836b	1.5352606
111	0xc2a8752f	-84.228874
112	0x4264ae18	57.170013
113	0x422a1b6a	42.52677
114	0xc0b76b59	-5.731854
115	0xc13a1719	-11.630639
116	0xc1eb35e8	-29.401321
117	0xbf4d2de7	-0.80148166
118	0x42991bbb	76.55416
119	0x425da111	55.40729
120	0x427b6914	62.852615
121	0x3f5655f9	0.83724934
122	0xc2ad255d	-86.572975
123	0x4271784f	60.36749
124	0x4229d4d2	42.457832
125	0xbef416ce	-0.4767365
126	0xc0e2d2d8	-7.088238
127	0xc1aade42	-21.358524
128	0xbf807728	-1.0036364
129	0x429f0b96	79.52263
130	0x4258f53d	54.23949
131	0x4281f4ac	64.977875
132	0x4000764b	2.00722
133	0xc2ac9a49	-86.30134
134	0x425d2453	55.285473
135	0x422c9316	43.14364
136	0xc109bae3	-8.608127
137	0xc15f797b	-13.967158
138	0xc2033026	-32.79702
139	0xbf32e35f	-0.6987819
140	0x42a12395	80.569496
141	0x4265ff3a	57.499245
142	0x42719104	60.391617
143	0xbfb809d3	-1.4377998
144	0xc2accbca	-86.398026
145	0x4251174a	52.272743
146	0x4208b213	34.1739
147	0xc128b66a	-10.544535
148	0x3f84b631	1.03681
149	0x41244b61	10.268403
150	0xbf57f970	-0.84364986
151	0xc15ff5ea	-13.997538
152	0xc24d5d92	-51.341377
153	0x428e8450	71.25842
154	0x40363368	2.8468876
155	0xc2a782a4	-83.75516
156	0x4246abe3	49.66786
157	0x4226bcc5	41.684345
158	0xc17002f7	-15.000724
159	0xc18953ea	-17.165974
160	0xc21ccfad	-39.20281
161	0xbee947b6	-0.45562524
162	0x428361e6	65.69121
163	0x42660df7	57.513638
164	0x42659228	57.39273
165	0x40073dff	2.113159
166	0xc2a97232	-84.72304
167	0x42556fc3	53.359142
168	0x422a28ea	42.539955
169	0xc1202673	-10.009387
170	0xc166ffc2	-14.437441
171	0xc208c411	-34.19147
172	0xbf244f7e	-0.64183795
173	0x429991a4	76.784454
174	0x4263fa74	56.994583
175	0x4271a232	60.408394
176	0x3eac495c	0.3364972
177	0xc2ad1562	-86.54176
178	0x426c19b5	59.025105
179	0x42227f6b	40.62443
180	0xbffe5794	-1.9870477
181	0xc080eb40	-4.028717
182	0xc1253601	-10.325685
183	0xbf8adce3	-1.0848659
184	0x42168da2	37.638313
185	0x4249fce9	50.496983
186	0x428740fc	67.62692
187	0x3e2a5be6	0.16636619
188	0xc2ac5ba6	-86.179
189	0x424c7356	51.112633
190	0x420ec309	35.690464
191	0xc12bca96	-10.736959
192	0xc010d924	-2.2632532
193	0xc075cf47	-3.8407762
194	0xbf67566c	-0.90366244
195	0x402c3bf1	2.6911585
196	0x41fe4bda	31.787037
197	0x4288249f	68.071526
198	0xbfcd4dca	-1.6039364
199	0xc2ad5101	-86.65821
200	0x425f476a	55.81974
201	0x420e3d2c	35.55974
202	0xc0cd201f	-6.410171
203	0x3ff05b53	1.877787
204	0x4133ca9a	11.236963
205	0xbf6b8695	-0.9200223
206	0xc129323f	-10.574767
207	0xc2489957	-50.149746
208	0x428f79c9	71.73786
209	0xc0b8ceed	-5.7752595
210	0xc29cbdab	-78.370445
211	0x41f6bfda	30.843678
212	0x41fdfc63	31.748236
213	0xc21fed42	-39.981697
214	0x4072330e	3.7843661
215	0xc23fc8a0	-47.945923
216	0x409c77da	4.8896303
217	0xc1d16df1	-26.178682
218	0xc0a3b12e	-5.1153784
219	0x4278f7ce	62.241997

b_inside f4 [20]
0	0xbc8f267c	-0.017474405
1	0xc1564d03	-13.393802
2	0xbdd91963	-0.10600545
3	0xbe86db2a	-0.26339084
4	0xbeae3762	-0.3402663
5	0xbe663651	-0.22481658
6	0xc0dd790d	-6.9210267
7	0x41097fc1	8.59369
8	0xbfbc953c	-1.4733043
9	0xbfb84f3d	-1.4399182
10	0xbfb0d181	-1.3813936
11	0xbfbcb521	-1.4742776
12	0xbfbe28c6	-1.4856193
13	0xbe737f8d	-0.23779126
14	0xbfc25887	-1.5183266
15	0xbfb59759	-1.4186813
16	0xbf9c7c33	-1.2225403
17	0xbf0510cc	-0.51978755
18	0xbee32d51	-0.4437051
19	0xc0a404ad	-5.125571
