14_3.pth (torch, 2251 bytes, 3 tensors)

c f4 [11]
000000 b8 7d ee 42 98 00 80 42 3e 9e 88 42 4c 7a 6a 42
       119.245544 64.00116 68.30907 58.61943
000010 9b 6c 41 42 c6 01 9c 42 ef 1d 8a 42 bd b1 c9 42
       48.35606 78.00346 69.058464 100.847145
000020 57 37 88 42 c6 ca c7 42 a4 7f 86 42
       68.108086 99.89604 67.2493

w f4 [11, 11]
000000 93 6b 5a 40 9e 25 9c c2 66 ba b1 42 77 31 ca 42
       3.4128158 -78.07347 88.86406 101.09661
000010 80 bc 10 c2 8d 8d 13 41 e1 d6 be c2 16 35 23 c1
       -36.184082 9.222058 -95.419685 -10.20046
000020 e1 ac b8 42 0d cf ba 42 70 4e c4 42 de d7 2e 3e
       92.337654 93.404396 98.1532 0.17074534
000030 8b ef e6 c2 19 96 3c 42 d1 d9 49 42 3d d7 c2 c1
       -115.46786 47.14658 50.46271 -24.355097
000040 c6 96 74 40 d3 9e 1f c1 a3 f6 86 3f 44 13 38 40
       3.8217025 -9.976275 1.0544018 2.8761759
000050 15 c4 85 c1 d0 67 b6 42 25 fe 4d 3e 6f 0c e5 c2
       -16.720743 91.20276 0.2011648 -114.524284
000060 cb a8 42 42 2c b8 53 42 4b 9c a9 c1 c3 4b 3d be
       48.664837 52.929855 -21.201315 -0.18485932
000070 d6 85 41 c1 ff 82 bd 3f 23 cb 22 41 72 27 c9 c1
       -12.095175 1.4805602 10.174594 -25.14426
000080 a1 e6 ae 42 b9 9b d8 3f 5c 7f e4 c2 a4 7f 20 42
       87.45045 1.6922523 -114.24875 40.12465
000090 f5 93 0b 42 00 d1 06 c2 e5 ae fc 3f d3 da f5 c1
       34.89449 -33.7041 1.9740874 -30.731848
0000a0 9d 03 51 40 ce 12 77 40 e7 2b f0 c1 c7 11 b4 42
       3.2658455 3.8605227 -30.021437 90.03472
0000b0 b2 f7 aa c0 a0 a0 c3 c2 27 4a 30 41 d6 d9 ac 41
       -5.3427362 -97.81372 11.018104 21.606365
0000c0 c2 3c 1f c2 e7 b8 b7 c0 e6 d5 60 c2 49 42 00 41
       -39.809334 -5.741321 -56.208885 8.016183
0000d0 8f 8d 5f 42 f4 ee fb c1 e2 78 58 42 d3 c8 ec 40
       55.88824 -31.491676 54.11805 7.3995147
0000e0 0f b4 87 c2 49 bd 40 42 50 2e 51 42 db 2d 4e 41
       -67.85168 48.18485 52.295227 12.886195
0000f0 bb eb d6 41 ae 8a b4 c2 36 4c ba c1 6b ab de 41
       26.865103 -90.27086 -23.287212 27.8337
000100 06 66 c6 41 16 9b 65 42 2b 90 10 40 ea f5 d7 c2
       24.799816 57.40145 2.2587993 -107.9803
000110 95 b6 31 42 4b b9 69 42 72 77 97 c1 cf 06 cd c0
       44.428303 58.43095 -18.933323 -6.407081
000120 ae 16 d1 c0 6f ed 2b 3f 08 e1 33 41 45 4a 99 40
       -6.5340185 0.6715917 11.242439 4.790316
000130 77 fd a8 42 8d 5c 8a c0 cf c2 de c2 4d 4f a0 42
       84.49505 -4.3237977 -111.380486 80.154884
000140 ba 38 90 42 06 fb 5b 42 7b 16 b9 41 8d d8 89 3f
       72.110794 54.99514 23.135977 1.0769211
000150 4d 59 ca bf c9 6b 09 42 49 54 cf c1 e1 0c 9e 42
       -1.5808502 34.35526 -25.916155 79.025154
000160 30 ac f1 3d c5 41 e6 c2 73 42 45 42 50 dd 4f 42
       0.1180042 -115.128456 49.31489 51.966125
000170 d3 c0 b3 c1 35 e9 9e 3f d5 3d 5d c1 f7 d7 c3 3f
       -22.469152 1.2414919 -13.827596 1.5300282
000180 9c ab 34 41 49 7e b6 c1 b1 bc ac 42 a7 32 f4 3e
       11.291897 -22.811663 86.36854 0.47694895
000190 38 f2 e2 c2 07 6d b8 42 a4 22 9f 42 b1 10 0c 41
       -113.47308 92.212944 79.56766 8.754075
0001a0 63 f2 d2 bf 23 cc 97 c2 48 49 32 c0 80 f9 ef 42
       -1.648022 -75.898705 -2.7857227 119.987305
0001b0 43 5a c8 42 e0 0e b8 42 94 6e 57 3e 3e a7 e5 c2
       100.17629 92.02905 0.21038276 -114.826645
0001c0 a7 b0 43 42 54 ab 4e 42 48 dd ae c1 c5 0e 02 3f
       48.922512 51.667313 -21.858047 0.50803787
0001d0 94 4d 45 c1 11 66 cc 3f 64 22 23 41 b8 f7 cc c1
       -12.33144 1.5968648 10.195896 -25.620956
0001e0 fb 85 ad 42
       86.76168

b_inside f4 [11]
000000 fb 56 66 3e 71 c3 93 c0 81 83 af c0 a6 e5 e2 c0
       0.22494118 -4.6176076 -5.4848027 -7.0905333
000010 ff fa af c0 b4 7f 30 41 62 b0 ba c0 9e 66 3b c0
       -5.499389 11.0311775 -5.834031 -2.9281383
000020 6b 7e af c0 6a d2 8d c0 5a f4 ae c0
       -5.484182 -4.4319353 -5.467328
