15_4.pth (torch, 2592 bytes, 3 tensors)

layer_stack.0.weight f4 [5, 11]
0	0xbe0d9737	-0.13827215
1	0xbfb29749	-1.3952419
2	0x3e5fa1a0	0.21838999
3	0x3d453b39	0.048152182
4	0x3e08f2c3	0.13373856
5	0x3e1bf60c	0.15230578
6	0x3eac8499	0.33694914
7	0x3e869a8f	0.26289794
8	0x3e941499	0.28921965
9	0x3ec0165e	0.37517065
10	0x3ee00217	0.43751594
11	0x3e3120d3	0.17297678
12	0xbf6b0003	-0.9179689
13	0x3e2b43f0	0.16725135
14	0x3d392fdf	0.04521167
15	0xbe494238	-0.19654167
16	0x3e98149d	0.29703227
17	0x3efe5cc2	0.49680144
18	0x3e3ac01b	0.18237345
19	0x3e279878	0.16366756
20	0x3df03f37	0.11730807
21	0x3e80c293	0.25148448
22	0xbdf43fab	-0.11926206
23	0xbe4d0b86	-0.20023927
24	0xbdd5b0c9	-0.1043411
25	0x3e19391a	0.14963189
26	0x3dfe3071	0.12411583
27	0x3e11d370	0.14240813
28	0xbd7525a1	-0.05985034
29	0xbdac6bcf	-0.08419
30	0xbd944ff8	-0.07241815
31	0xbe216bdb	-0.157638
32	0xbe125619	-0.14290656
33	0x3b1b08cb	0.0023656364
34	0xbf888dc1	-1.066826
35	0xbdfcbce6	-0.12340717
36	0x3e7bde8d	0.24596615
37	0xbe9f0cf0	-0.31064558
38	0xbe555aeb	-0.20835464
39	0x3d9be71f	0.07612442
40	0x3d88b6f5	0.06675521
41	0x3ca598cc	0.02021446
42	0xbc69531f	-0.014241009
43	0x3f333ee1	0.7001782
44	0x3d34cc7a	0.044140317
45	0x3faf8f2b	1.3715566
46	0xbe9261fb	-0.28590378
47	0xbec4a4d3	-0.38407
48	0xbe14d2c0	-0.1453352
49	0x3df8cd30	0.121485114
50	0xbd7baa78	-0.06144187
51	0x3e976302	0.29567724
52	0xbd78d3df	-0.06074893
53	0xbe8432c3	-0.25819978
54	0xbf34f0c3	-0.70679873

layer_stack.0.bias f4 [5]
0	0x3e727a72	0.23679522
1	0x3e85b1a1	0.26112083
2	0xbe37ec4b	-0.17961232
3	0x3e7562fc	0.23963541
4	0xbf194b55	-0.5988057

layer_stack.2.weight f4 [1, 5]
0	0x3e88059b	0.26566777
1	0x3ed300c1	0.41211513
2	0xbe7973a8	-0.24360526
3	0x3f033c53	0.5126392
4	0xbf20f074	-0.628669
