20sig_B.pth (torch, 2427 bytes, 3 tensors)

c f4 [20]
000000 15 8e 3d 42 80 b5 4a 42 b1 b0 3e 42 08 e3 3b 42
       47.388752 50.677246 47.67255 46.97171
000010 48 0e 42 42 2c 36 3f 42 d4 b8 45 42 30 fc 4a 42
       48.513947 47.802902 49.430496 50.746277
000020 8e 47 46 42 64 ad 48 42 f9 0f 42 42 ef 0a 48 42
       49.569878 50.169327 48.5156 50.010677
000030 8e 71 47 42 89 b8 3f 42 c6 b6 43 42 f1 de 42 42
       49.860893 47.93021 48.92849 48.717716
000040 53 61 47 42 79 5c 41 42 0f 8a 43 42 cc f1 45 42
       49.845043 48.340305 48.884823 49.48613

w f4 [20, 11]
000000 07 cd 88 3f ae be 59 c2 ba 88 0b 42 06 6a 2a 42
       1.0687569 -54.43621 34.883522 42.60354
000010 e1 6a 2b c1 a7 46 07 be 7b 46 b6 41 08 12 5a bf
       -10.7135935 -0.13210545 22.784414 -0.85183764
000020 08 ce 0a 42 63 a7 36 c1 9f 0c 4a 42 bd cf 14 c1
       34.701202 -11.415866 50.512325 -9.300717
000030 1b 67 52 c2 25 ee db 41 50 a6 23 42 b6 67 52 c1
       -52.60069 27.491282 40.912415 -13.15032
000040 5a db a1 40 e2 a5 74 40 aa ef f9 40 d7 ce c0 40
       5.0580263 3.8226247 7.810506 6.025249
000050 af 40 27 41 11 97 3a 42 61 0b e6 bd 77 65 5e c2
       10.453292 46.647526 -0.11232639 -55.599087
000060 4a 14 07 42 41 97 28 42 76 67 35 c1 6d f9 0b c0
       33.769814 42.14771 -11.337759 -2.1870987
000070 57 06 84 41 75 ba 82 bf f0 24 0c 42 5f 00 46 3f
       16.503096 -1.0213152 35.03607 0.77344316
000080 d2 87 46 42 37 f9 ea be c6 66 57 c2 e4 0a 02 42
       49.632637 -0.4589326 -53.850365 32.510635
000090 ba 7e 23 42 ad 7c 43 c1 e5 f0 d5 bf 6d dc 0e 41
       40.873756 -12.217938 -1.671414 8.928815
0000a0 c9 db cf bf 4a a6 df 41 06 4d 85 40 91 39 43 42
       -1.6238948 27.956196 4.1656523 48.806217
0000b0 08 16 36 3f 00 53 5e c2 a5 65 0d 42 70 80 2b 42
       0.71127367 -55.581055 35.349262 42.875427
0000c0 80 64 25 c1 99 74 ab bf e7 9f ae 41 00 4a 63 bf
       -10.337036 -1.3394958 21.828077 -0.8878479
0000d0 ee df 15 42 10 6a 1f c1 3a e9 4a 42 87 b9 9a be
       37.46868 -9.963394 50.72776 -0.3021967
0000e0 18 c4 5f c2 b2 76 08 42 78 36 28 42 d4 7a 30 c1
       -55.941498 34.115913 42.053192 -11.029987
0000f0 d9 28 bb bf 76 d4 8d 41 dd bd 8f bf 77 33 00 42
       -1.4621841 17.72874 -1.1229817 32.05026
000100 12 e4 8d 3f 9d 17 43 42 da ac 24 40 5a ec 5e c2
       1.1085227 48.77306 2.57305 -55.730812
000110 24 8a 19 42 0b b3 38 42 78 78 19 c1 d1 5e ab 3f
       38.384903 46.174847 -9.591911 1.3388311
000120 58 95 cf 41 ea e2 44 bf 82 4a 21 42 8a fc 61 c1
       25.947922 -0.76908743 40.32276 -14.124155
000130 95 6b 50 42 dc 9c 6e 40 c2 5d 61 c2 52 48 25 42
       52.10506 3.728324 -56.34156 41.320625
000140 3b 89 43 42 87 1e 0a c1 2b 76 1b 40 fd 3e d9 41
       48.884014 -8.632453 2.4290874 27.155756
000150 65 04 3b bf e2 58 2f 42 df 29 58 c1 12 78 55 42
       -0.7305358 43.8368 -13.510222 53.367256
000160 ba 06 0c 40 a5 bd 61 c2 83 9b 18 42 e9 b0 37 42
       2.1879106 -56.4352 38.151867 45.922764
000170 d2 8d 14 c1 fc 76 58 3f 98 a1 cc 41 aa 4f 4e bf
       -9.284624 0.84556556 25.578903 -0.8059031
000180 25 45 1d 42 96 2b 6c c1 57 69 4f 42 bd 11 35 40
       39.317524 -14.760641 51.85287 2.8292077
000190 c0 10 5f c2 24 c0 1e 42 6b aa 3b 42 e8 51 0e c1
       -55.766357 39.687637 46.916424 -8.894997
0001a0 1e 16 d9 3f ef 2c cf 41 a2 8d 44 bf 79 86 26 42
       1.6959875 25.89694 -0.76778615 41.63132
0001b0 91 53 6e c1 e4 d8 50 42 67 19 05 40 a0 94 54 c2
       -14.895402 52.211807 2.0796754 -53.14514
0001c0 ac cb 14 42 3d 4d 35 42 07 45 19 c1 ff 82 da be
       37.1989 45.325428 -9.579352 -0.42678067
0001d0 3a 80 be 41 e9 1c 48 bf 22 c7 16 42 f5 2d 70 c1
       23.81261 -0.78169113 37.694466 -15.01122
0001e0 5b 31 50 42 d7 0a 19 40 e6 f2 5e c2 15 ed 17 42
       52.0482 2.3912866 -55.737206 37.981525
0001f0 b8 93 38 42 b1 a7 0e c1 42 60 32 3f 37 76 c7 41
       46.144257 -8.91594 0.6967813 24.932722
000200 ab 6c 47 bf cc 88 22 42 f6 6c 6e c1 7b 8f 4f 42
       -0.7790019 40.63359 -14.901602 51.890118
000210 e1 47 02 40 ee 90 5f c2 ec 3e 16 42 c3 33 36 42
       2.0356371 -55.891533 37.561447 45.55055
000220 b0 38 1b c1 0f b3 44 3f 7a 27 cc 41 fa 93 4e bf
       -9.70134 0.7683572 25.519276 -0.80694544
000230 2d a0 1f 42 67 ff 6d c1 c3 68 4f 42 45 c0 03 3f
       39.90642 -14.874854 51.852306 0.51465255
000240 42 30 5e c2 d0 b2 0b 42 ae d5 2a 42 d8 93 29 c1
       -55.547127 34.92462 42.70867 -10.598595
000250 ad b4 b7 bf fc cc ac 41 62 fa 6c bf c1 68 0c 42
       -1.4352013 21.60009 -0.92569554 35.1023
000260 71 3f ee c0 d7 94 48 42 7b c2 2c 40 af 64 55 c2
       -7.4452443 50.14535 2.6993701 -53.348324
000270 18 10 1a 42 44 42 38 42 23 1c 1c c1 06 c7 fd 3c
       38.515717 46.064713 -9.756869 0.03097869
000280 78 af c3 41 0e 95 3c bf 50 c1 16 42 b8 32 7a c1
       24.460678 -0.7366494 37.68878 -15.6373825
000290 45 f8 4f 42 eb 28 0f 40 e4 ad 57 c2 a0 b8 13 42
       51.99245 2.2368724 -53.919815 36.930298
0002a0 55 8a 36 42 13 37 1c c1 fb 19 6b 3c 34 19 c4 41
       45.63509 -9.763446 0.014349456 24.512306
0002b0 3c da 45 bf 76 f2 13 42 31 49 70 c1 f1 76 50 42
       -0.77286124 36.98678 -15.017869 52.116154
0002c0 e9 d5 07 40 7c 95 5e c2 13 d7 15 42 23 ce 36 42
       2.122431 -55.64598 37.460033 45.701305
0002d0 d3 ba 0e c1 73 2e 58 3f d8 c6 cd 41 4a ad 4f bf
       -8.920611 0.84445876 25.722092 -0.81123793
0002e0 66 0f 1d 42 2a 04 70 c1 56 17 52 42 68 2b 92 3f
       39.265038 -15.001017 52.52279 1.1419497
0002f0 c4 cb 5d c2 f6 65 0c 42 5e 37 2c 42 68 ff 27 c1
       -55.44899 35.09957 43.05407 -10.499855
000300 88 44 a4 3e 54 7e be 41 22 c5 59 bf e5 67 13 42
       0.32083535 23.811684 -0.85066426 36.85146
000310 cf 1b 49 c1 cc be 4d 42 1f 8f 8a 3f bf ce 5e c2
       -12.569289 51.436325 1.0824927 -55.7019
000320 8a 4e 0f 42 76 f7 2d 42 ef ee 19 c1 3f b6 fb bd
       35.8267 43.49166 -9.620833 -0.1229062
000330 c3 11 bc 41 cd f4 5c bf 56 14 1a 42 5c d1 4e c1
       23.508673 -0.86311036 38.51986 -12.926113
000340 af 75 4a 42 ea 96 c7 bf e8 cd 5d c2 0f 0d 02 42
       50.614925 -1.559293 -55.45108 32.512753
000350 fb cb 27 42 fa f8 40 c1 2a 0a d5 be 8e 83 2a c0
       41.9492 -12.060785 -0.41609317 -2.6642795
000360 61 b6 83 bf c2 1b 80 41 ab 01 12 41 40 d7 40 42
       -1.0290033 16.013554 9.125407 48.210205

b_inside f4 [20]
000000 81 99 65 bf ef 88 dc c0 57 a7 2a bf 49 71 3e bf
       -0.89687353 -6.8917155 -0.6666159 -0.7439161
000010 a9 54 4c bf a6 f2 20 bf c5 c9 c7 bf 95 51 13 c0
       -0.7981668 -0.6287025 -1.560845 -2.3018544
000020 f5 62 b0 bf 2a cb de bf 82 77 a2 bf 60 d3 bd bf
       -1.3780199 -1.7405751 -1.2692721 -1.4830132
000030 69 ad a8 bf c7 ea 41 bf 4d 26 c9 bf 12 1a ad bf
       -1.317792 -0.75748867 -1.5714813 -1.3523581
000040 fa 3c ae bf 25 f9 6e bf 36 0d 66 bf ca de 0e bf
       -1.3612359 -0.93348914 -0.8986391 -0.558087
