20sigmoids_B.pth (torch, 2491 bytes, 3 tensors)

c f4 [20]
0	0x4211c200	36.439453
1	0x422b87cf	42.882626
2	0x422f8ac2	43.885506
3	0x420ec95f	35.69665
4	0x42378f96	45.89022
5	0x4239df3e	46.46801
6	0xc234b480	-45.17627
7	0x420e2f21	35.546024
8	0x41f4c95a	30.598316
9	0x42017ee9	32.373936
10	0x41ee9e98	29.827438
11	0x4208d5a3	34.20863
12	0x41f81823	31.011786
13	0x422d7991	43.368717
14	0x41fcea93	31.614538
15	0x41f0e3e2	30.11127
16	0x42146259	37.096043
17	0x42181857	38.02377
18	0x4234abfc	45.167953
19	0x4232b9c6	44.68142

w f4 [20, 11]
0	0x3e825948	0.2545874
1	0xc1a265ca	-20.299702
2	0x42055b77	33.33932
3	0x42244936	41.071495
4	0xbf2f5614	-0.6849072
5	0xbf2cde61	-0.67526823
6	0xc1d2be42	-26.3429
7	0xbf12f344	-0.57402444
8	0x3e1dc252	0.15406159
9	0xc1b65e5d	-22.796076
10	0x420448e6	33.07119
11	0xbf26735c	-0.65019774
12	0xc1908ef8	-18.069809
13	0x42149e00	37.154297
14	0x4230dec1	44.217533
15	0x3f3be172	0.7339088
16	0x3fa1fd08	1.2655344
17	0xc1c6d0a4	-24.851875
18	0xbf5fcf81	-0.87426
19	0xc1036d21	-8.214143
20	0xc195ff77	-18.749739
21	0x42069e23	33.65443
22	0xbf35488f	-0.7081384
23	0xc1a9231f	-21.142149
24	0x4211ff06	36.499046
25	0x42320527	44.50503
26	0x3f110cd3	0.56660193
27	0x3dccc7a6	0.099990174
28	0xc1e0087b	-28.00414
29	0xbf52c851	-0.8233691
30	0xc0fc5e52	-7.8865137
31	0xc1a90e26	-21.131908
32	0x42093318	34.299896
33	0x3ea2cea4	0.3179828
34	0xc1a214ec	-20.260216
35	0x42008e76	32.139122
36	0x422159cb	40.33769
37	0xbfe796cd	-1.8092896
38	0xc01a3baa	-2.4098916
39	0xc1d47e92	-26.561802
40	0xbef0ca69	-0.47029427
41	0x4070fe84	3.7655344
42	0xc1d06f8b	-26.054464
43	0x4204999c	33.15001
44	0xbf8518c8	-1.0398188
45	0xc1a6a758	-20.83171
46	0x421ae707	38.725613
47	0x42350e90	45.26422
48	0x3fc612fa	1.5474541
49	0x3f93abcf	1.1536807
50	0xc1daf45e	-27.36932
51	0xbf6acb2b	-0.9171626
52	0xc1397691	-11.591447
53	0xc1a25949	-20.293596
54	0x420a9202	34.642586
55	0xbf982622	-1.1886637
56	0xc1a8c48d	-21.095972
57	0x421de92e	39.477715
58	0x423792dd	45.89342
59	0x3febfb29	1.8436023
60	0x3fe72e03	1.8060917
61	0xc1d472c0	-26.55603
62	0xbf7a9b6c	-0.97893405
63	0xc13ec619	-11.923364
64	0xc1995f5f	-19.171568
65	0x4208a364	34.15956
66	0x3f8a91e8	1.0825777
67	0x419f437f	19.907957
68	0xc217875a	-37.88218
69	0xc2337f90	-44.874573
70	0xbfb6db25	-1.4285628
71	0xbf20d260	-0.62821007
72	0x41cbdf76	25.484112
73	0x3f59b400	0.85040283
74	0x413aa0f1	11.664292
75	0x41b2a6e1	22.331484
76	0xc208fb92	-34.245674
77	0x41b3db32	22.482029
78	0xc099945c	-4.7993603
79	0x4196962f	18.823332
80	0x41b54a4b	22.661276
81	0xc083d62a	-4.119893
82	0xc12edc38	-10.928764
83	0xc1e9b58e	-29.21365
84	0x3ff38909	1.9026195
85	0xc20bc5df	-34.943233
86	0x420dce22	35.4513
87	0x420d9525	35.39565
88	0x40a90bce	5.282691
89	0xc13eed18	-11.932884
90	0x4200ba4c	32.18193
91	0x4212fa76	36.74459
92	0x3fb2ff07	1.3984078
93	0x40366b53	2.8503006
94	0xc1e570c6	-28.680065
95	0xbebd5b16	-0.36983556
96	0xc1cf5059	-25.914232
97	0x41c71e81	24.889894
98	0x420511aa	33.26725
99	0x3ff4b54c	1.9117827
100	0xc197df72	-18.984104
101	0x42049422	33.14466
102	0x421deaea	39.47941
103	0x3eb1d2ad	0.34731045
104	0x3f87ad72	1.0599806
105	0xc1e5324b	-28.649557
106	0xbf13f1ca	-0.57790816
107	0xbfe51b93	-1.789904
108	0x402a075d	2.6566994
109	0x4203129c	32.768173
110	0x404a2877	3.1587198
111	0xc168d0bf	-14.550963
112	0x41fd22aa	31.641926
113	0x42177a94	37.869705
114	0x3ea22a21	0.31672767
115	0x3f112153	0.56691474
116	0xc1d1c9fb	-26.223623
117	0xbef0bca8	-0.47018933
118	0xc0e92a24	-7.286394
119	0x4160d1cf	14.051223
120	0x4203c52b	32.942547
121	0x3f8b76eb	1.0895666
122	0xc1a31bbc	-20.388542
123	0x4203376a	32.804115
124	0x42225eed	40.5927
125	0x3d997ff1	0.07495106
126	0xbe35e446	-0.1776286
127	0xc1e4f4e5	-28.619577
128	0xbf0f3f89	-0.5595632
129	0x3fdd6b12	1.72983
130	0xc13c6f4a	-11.77717
131	0x42034a3f	32.822506
132	0x407e0522	3.9690633
133	0xc163f49f	-14.247222
134	0x4200fec9	32.248814
135	0x4217223c	37.783432
136	0x3f6732d7	0.9031195
137	0x403871f0	2.8819542
138	0xc1e6d83a	-28.85558
139	0xbf055c21	-0.520937
140	0xc1741ac3	-15.256534
141	0x41bc337d	23.52514
142	0x42048a4d	33.13506
143	0xbf24059a	-0.6407105
144	0xc1a69531	-20.822847
145	0x421357e6	36.83584
146	0x4230d829	44.211094
147	0x3f6c67d5	0.92345935
148	0x3ee368e0	0.4441595
149	0xc1dcaa99	-27.5833
150	0xbf54ef10	-0.8317728
151	0xc0fe377d	-7.9442735
152	0xc1a465ae	-20.549648
153	0x4207d54e	33.958305
154	0x4138e4b2	11.555834
155	0xc09839e0	-4.757065
156	0x41e58497	28.689741
157	0x41f3c006	30.468761
158	0xbfbff4d3	-1.499659
159	0xbfef5a08	-1.869935
160	0xc1d53c15	-26.654337
161	0x3e3005fe	0.17189786
162	0xc20ddd3a	-35.46604
163	0x41d9613e	27.172482
164	0x4207e1f0	33.970642
165	0x40bf6606	5.981204
166	0xc10e9eb6	-8.913748
167	0x41f6e84b	30.863424
168	0x420f5ef5	35.84273
169	0x3f8ea200	1.1143188
170	0x3ff80f1d	1.9379612
171	0xc1d432a5	-26.524729
172	0xbe758243	-0.23975472
173	0xc1ecc3b2	-29.595554
174	0x41c8a7a0	25.081848
175	0x42066582	33.59913
176	0x3ed49373	0.41518745
177	0xc1a39b37	-20.450788
178	0x420887ae	34.1325
179	0x4228779b	42.116802
180	0x3f4ad9d4	0.7923863
181	0x3f084994	0.5323727
182	0xc1df740a	-27.93166
183	0xbf31ca77	-0.6944956
184	0xbff82085	-1.9384924
185	0xc15feb54	-13.994953
186	0x42082115	34.032307
187	0x3e872ce2	0.2640143
188	0xc1a43828	-20.52742
189	0x4208c8e3	34.19618
190	0x4227d40b	41.957073
191	0xbbb81be7	-0.0056185606
192	0x3f455466	0.77081907
193	0xc1e308f5	-28.379374
194	0xbf3b27d2	-0.73107636
195	0xbfee2560	-1.8605156
196	0xc176a1ba	-15.414484
197	0x42087d37	34.12228
198	0xbf588c9b	-0.84589547
199	0xc1a590dd	-20.695734
200	0x4219a5b4	38.41182
201	0x42342b64	45.042374
202	0x3ff54488	1.9161539
203	0x3feebf7d	1.8652188
204	0xc1de8587	-27.815199
205	0xbf76548a	-0.96222746
206	0xc124eb5c	-10.307461
207	0xc1881759	-17.0114
208	0x42081ae1	34.02625
209	0xbf616bfc	-0.88055396
210	0xc1a71f8e	-20.890408
211	0x421585a9	37.380527
212	0x4233b277	44.924282
213	0x3f5eeeb3	0.87082976
214	0x3f4e567c	0.80600715
215	0xc1d959e8	-27.1689
216	0xbf6322ee	-0.88725173
217	0xc1138386	-9.21961
218	0xc1a3f063	-20.492376
219	0x4207bdfd	33.935535

b_inside f4 [20]
0	0xbf20c4a8	-0.62800074
1	0xbd425a37	-0.047449317
2	0xbd9db460	-0.077004194
3	0xbf476767	-0.77892154
4	0x3e064ebf	0.13115977
5	0x3e723eb4	0.23656732
6	0x3e5e2c73	0.21696644
7	0xc109c217	-8.609885
8	0xbfb019f1	-1.3757917
9	0xbfa4676d	-1.2844063
10	0xbfbf4bcb	-1.4945005
11	0xbf8c6bb1	-1.0970365
12	0xbfb84528	-1.4396105
13	0xbdd2198e	-0.102587804
14	0xc04bb6d0	-3.183033
15	0xbfb67a72	-1.4256117
16	0xbf345377	-0.7043986
17	0xbf1e1789	-0.6175466
18	0x3c806eac	0.015677772
19	0x3d900663	0.07032468
