4layer_B.pth (torch, 4120 bytes, 7 tensors)

layer_stack.0.weight f4 [7, 11]
000000 05 b7 40 be 60 ac 12 bf 62 28 19 3f f7 c4 07 bd
       -0.18819816 -0.57294273 0.59827244 -0.033146825
000010 36 de de bd 1f 1a b1 3d 6b b2 ef bd fd a9 8f 3e
       -0.10882227 0.0864756 -0.117039524 0.28059378
000020 29 86 78 bd df 1b 44 3e 72 bb 3e be 24 ce 11 3d
       -0.06067482 0.19151257 -0.18626192 0.03559698
000030 f7 93 31 bd 69 6d 19 3f 49 6f b1 3c aa f1 c2 be
       -0.043354 0.5993257 0.02165951 -0.38075
000040 55 8a 8c 3e e4 7f b4 3d c3 57 13 3e a1 c5 f5 bd
       0.2744929 0.08813456 0.14388947 -0.12000585
000050 3b 28 75 be 8c 5b a1 be ab 3f f4 bd 86 0b 4d be
       -0.23941128 -0.31515157 -0.11926206 -0.20023927
000060 c9 b0 d5 bd 1a 39 19 3e 71 30 fe 3d 70 d3 11 3e
       -0.1043411 0.14963189 0.12411583 0.14240813
000070 a1 25 75 bd cf 6b ac bd f8 4f 94 bd db 6b 21 be
       -0.05985034 -0.08419 -0.07241815 -0.157638
000080 19 56 12 be d8 12 fa bc a8 fc 9c bd 24 fc da 3e
       -0.14290656 -0.030526564 -0.07665378 0.42770493
000090 b6 86 af 3e 59 54 c0 be e8 d1 db bd 73 10 5c be
       0.34282464 -0.37564352 -0.10733396 -0.2149065
0000a0 39 0a 1e 3e 00 11 ee bd d2 ea 8d be 2c 9e 7e 3e
       0.15433587 -0.11624336 -0.27718216 0.24865025
0000b0 96 72 e7 bd ec 6a ae 3e 83 fa 63 bf a7 18 05 bf
       -0.113011524 0.3406595 -0.89054126 -0.5199074
0000c0 a8 1b d7 bd 28 cf 6e bb be 63 ba 3e 57 27 71 3e
       -0.10503322 -0.0036439393 0.36404222 0.23550163
0000d0 fd 97 40 3d 37 4b 19 be 69 dd 8f be 7a 5b 55 be
       0.047019947 -0.14970098 -0.2809861 -0.20835677
0000e0 7e de 3c be 4b ec 37 be b9 75 53 be c4 3b 1d be
       -0.18444249 -0.17961232 -0.20650376 -0.1535483
0000f0 4a 1c 88 3d 8c bf 92 3e 2c 2e 28 be 03 99 4a 3e
       0.06646021 0.28661764 -0.16423863 0.19784932
000100 f3 2a 87 be 49 0d 48 3e 8b db f7 3d 6b 5c 3a 3b
       -0.26399955 0.19536318 0.121024214 0.0028436433
000110 07 9e d9 bd 41 4c 4b be e0 7d a2 be 86 ad 74 3e
       -0.106258444 -0.19853307 -0.3173666 0.23894319
000120 3b d3 cb 3d 0f cb 6d be c0 74 19 3e ce fc 9e be
       0.099523984 -0.23221992 0.14985943 -0.3105225
000130 19 fa bf bd
       -0.09373874

layer_stack.0.bias f4 [7]
000000 42 e0 fd 3e 86 3c 09 3f 3d b7 76 3c a5 a5 d1 3e
       0.49585158 0.53607976 0.015058336 0.4094669
000010 e6 83 09 bf 40 ca eb bd ef ad 1b be
       -0.53716886 -0.115131855 -0.15203069

layer_stack.2.weight f4 [5, 7]
000000 1a fd 8e b9 cc cc ae be c8 7e 93 3e 27 e8 26 3e
       -0.00027272926 -0.34140623 0.28807664 0.16299497
000010 1e a4 49 3b 36 9b 2c 3d d1 c2 43 be 94 6d 00 b9
       0.0030767987 0.04214021 -0.19117285 -0.00012247852
000020 53 50 67 bc 49 00 8f be e4 5c 0d be 12 01 24 3e
       -0.014118272 -0.27929905 -0.13804966 0.16016033
000030 25 aa fb bd 9b 97 a7 3e 32 90 81 be 23 88 4f be
       -0.12288312 0.32732853 -0.25305325 -0.20266776
000040 cd 14 f3 bd 2d 93 82 bc 35 ab 65 3e 7e c6 d0 bd
       -0.11869202 -0.01593932 0.22428592 -0.101941094
000050 da e9 2d 3d 6c 00 57 3e f1 8a 0b 3e c4 08 99 3e
       0.042459346 0.20996255 0.1362722 0.298895
000060 01 3b 5e 3e d2 60 00 bf 4f 1b 8b 3e 6b 40 8f 3e
       0.21702196 -0.50147736 0.27169272 0.27978835
000070 f7 f1 8b 3d 7e 4e aa 3d 34 45 cb 3c 5f c2 a1 be
       0.068332605 0.083157524 0.024813272 -0.31593606
000080 a9 19 fd bd ce 3a 91 3d 7c ef 18 be
       -0.1235841 0.07091294 -0.14935106

layer_stack.2.bias f4 [5]
000000 71 8d c9 3c 37 21 3d bd 8d f1 83 3e 0c 60 b2 3e
       0.024603577 -0.046174254 0.25770226 0.34838903
000010 39 4e 35 3d
       0.044264052

layer_stack.4.weight f4 [3, 5]
000000 18 3d 83 3e 69 94 86 be e8 35 8e 3e ac 31 e9 3d
       0.25632548 -0.26285103 0.27775502 0.11386427
000010 5f 15 67 3e d1 ee 89 be 54 a4 0b 3e b9 02 5d 3e
       0.22566746 -0.26940015 0.13636905 0.2158307
000020 f9 a8 86 be 6b fc a6 3e df f7 e0 3e 3e 7c c4 be
       -0.2630079 0.32614455 0.4393911 -0.3837604
000030 09 61 51 3e 07 10 6c 3c b1 c2 9d 3e
       0.20447172 0.014408118 0.308126

layer_stack.4.bias f4 [3]
000000 6d a5 17 40 7f f4 1e 40 20 cd 0d 40
       2.3694718 2.4836729 2.2156448

layer_stack.6.weight f4 [1, 3]
000000 19 7b 96 3f a3 c2 70 c0 95 64 a2 3f
       1.1756316 -3.7618797 1.2686945
