4layers_F.pth (torch, 4120 bytes, 7 tensors)

layer_stack.0.weight f4 [7, 11]
000000 41 8d 68 bd f6 fd 01 c0 a4 38 80 be 3d ca 91 be
       -0.056775335 -2.0311255 -0.25043213 -0.28474608
000010 c9 7e ff be 85 49 9a be 35 0d 81 3f c4 86 e5 3d
       -0.49901417 -0.30134216 1.0082155 0.11207345
000020 86 aa a2 40 29 df 20 3f e1 49 8c 3e b4 df 80 3d
       5.083316 0.62840515 0.27400115 0.06292668
000030 de a9 84 bf 42 6f 9c 3e a2 68 aa bd da f0 8f be
       -1.0364339 0.30553633 -0.083207384 -0.28113443
000040 8c 55 8c 3e 1b 09 4c 3e 6a f4 2c 3e 7d cc d6 be
       0.27409017 0.19925348 0.16890112 -0.41952887
000050 dd d0 99 bd 01 73 06 3e ab 3f f4 bd 86 0b 4d be
       -0.07510541 0.13129808 -0.11926206 -0.20023927
000060 c9 b0 d5 bd 1a 39 19 3e 71 30 fe 3d 70 d3 11 3e
       -0.1043411 0.14963189 0.12411583 0.14240813
000070 a1 25 75 bd cf 6b ac bd f8 4f 94 bd db 6b 21 be
       -0.05985034 -0.08419 -0.07241815 -0.157638
000080 19 56 12 be f2 01 84 3c 5d 03 87 bf 90 e4 03 3e
       -0.14290656 0.016114209 -1.0547901 0.12880158
000090 ba 2b 71 3e 1a ee 91 be aa 0b f4 bd c3 bf 05 be
       0.23551837 -0.2850197 -0.11916287 -0.13061433
0000a0 8c 2e 48 3e 9c 69 17 bf bc 88 e0 bd b6 3f 30 3f
       0.19549006 -0.5914552 -0.1096358 0.68847215
0000b0 67 ea dd 3c e2 70 ad 3f e1 45 0e bf c6 68 c7 be
       0.02708931 1.3550074 -0.55575377 -0.38947123
0000c0 7d ba 3e be c1 08 c9 3c 9e 95 e2 3d 70 4f 8a 3e
       -0.18625827 0.024540307 0.110636935 0.2701373
0000d0 62 a4 e4 3e fc 4f 26 be c1 d2 35 bf 7a 5b 55 be
       0.44656664 -0.16241449 -0.7102471 -0.20835677
0000e0 7e de 3c be 4b ec 37 be b9 75 53 be c4 3b 1d be
       -0.18444249 -0.17961232 -0.20650376 -0.1535483
0000f0 4a 1c 88 3d 8c bf 92 3e 2c 2e 28 be 03 99 4a 3e
       0.06646021 0.28661764 -0.16423863 0.19784932
000100 f3 2a 87 be 49 0d 48 3e d7 b1 fb 3d ad bc 90 3b
       -0.26399955 0.19536318 0.1228978 0.004417023
000110 cf 19 d6 bd e8 83 49 be c5 8a a1 be da 27 77 3e
       -0.10454141 -0.19679224 -0.31551185 0.24136296
000120 9c c4 d0 3d fe dd 6b be 15 5b 2f 3e cf e3 90 be
       0.1019375 -0.23033902 0.17124589 -0.28298804
000130 86 6b bc bd
       -0.09200196

layer_stack.0.bias f4 [7]
000000 1f f0 c6 be 7a c9 25 3e 3d b7 76 3c 9c 18 32 3d
       -0.38855073 0.16190138 0.015058336 0.0434805
000010 ce 56 f4 bd 40 ca eb bd 3f 02 1a be
       -0.11930619 -0.115131855 -0.1503992

layer_stack.2.weight f4 [5, 7]
000000 1a fd 8e b9 cc cc ae be c8 7e 93 3e 27 e8 26 3e
       -0.00027272926 -0.34140623 0.28807664 0.16299497
000010 1e a4 49 3b 36 9b 2c 3d d1 c2 43 be e7 dd 0a 3d
       0.0030767987 0.04214021 -0.19117285 0.03390303
000020 9f 8f 05 bd 49 00 8f be 11 fa 1c be 89 77 08 3e
       -0.03260767 -0.27929905 -0.15329768 0.13326849
000030 25 aa fb bd bb 98 a8 3e 4e 63 78 c0 bf 4e 39 be
       -0.12288312 0.32929024 -3.881061 -0.18096446
000040 cd 14 f3 bd 65 6b 33 bd 78 81 60 3e 7e c6 d0 bd
       -0.11869202 -0.04380359 0.21924388 -0.101941094
000050 da e9 2d 3d 95 7f 38 3e 01 ca b4 3e c4 08 99 3e
       0.042459346 0.18017419 0.35310367 0.298895
000060 01 ba b3 3e 1c 18 12 bf 4f 1b 8b 3e b8 41 90 3e
       0.35102847 -0.5706804 0.27169272 0.2817514
000070 b0 9b 8f 3d 66 df ad 3d 34 45 cb 3c b3 fd a0 be
       0.07012117 0.084898755 0.024813272 -0.31443557
000080 06 61 f9 bd ce 3a 91 3d 7c ef 18 be
       -0.12176709 0.07091294 -0.14935106

layer_stack.2.bias f4 [5]
000000 71 8d c9 3c d3 ed 9c bc a8 29 67 3e e3 0e de bc
       0.024603577 -0.019156372 0.22574484 -0.027106708
000010 3d 5e 3c 3d
       0.04598831

layer_stack.4.weight f4 [3, 5]
000000 18 3d 83 3e 6c a5 c6 be f1 d5 08 bf 2f e0 18 3f
       0.25632548 -0.38798082 -0.5345145 0.59717077
000010 5f 15 67 3e d1 ee 89 be 0c 5e 21 3d 5d 93 a1 3f
       0.22566746 -0.26940015 0.03939633 1.2623097
000020 63 3f 10 bf cf b1 a7 3e df f7 e0 3e a7 e8 02 bf
       -0.5634672 0.32752845 0.4393911 -0.5113625
000030 c3 92 1b bf 44 ce fc 3e b1 c2 9d 3e
       -0.60770816 0.49376118 0.308126

layer_stack.4.bias f4 [3]
000000 c4 d5 90 3f ea 23 e5 3f fb 46 79 3f
       1.1315236 1.7901585 0.9737393

layer_stack.6.weight f4 [1, 3]
000000 b6 b4 71 3f ed 4c fc bf 48 aa 5f 3f
       0.9441637 -1.9710976 0.87369204
