Taiko_3layer_ReLU_B.pth (torch, 3418 bytes, 5 tensors)

layer_stack.0.weight f4 [7, 11]
00000000: bdd0 0dbe cc6a b2bf 6ceb c33e 54b0 1cbe
00000010: 3f9d d3bd 0faf 783d 31e2 be3e 1725 883e
00000020: e56e 17be fc50 453e e887 183e 3053 1f3e
00000030: 8b66 8a3f 7c52 c0be e211 a0be 3979 fe3d
00000040: 8ac3 88bd d188 bdbd 006e a63d 3cb3 4c3d
00000050: 8a9c ffbd 1ace 71bf ab3f f4bd 860b 4dbe
00000060: c9b0 d5bd 1a39 193e 7130 fe3d 70d3 113e
00000070: a125 75bd cf6b acbd f84f 94bd db6b 21be
00000080: 1956 12be 92f1 5a3e 301d 54bf 6336 9f3e
00000090: c096 ad3e 0d46 bdbe b305 51bd a77c 8dbd
000000a0: 5c86 1b3e 90a5 b1be a675 e7bd 087f 3e3f
000000b0: 8540 4abc 9b27 a93f da95 15bf ec64 65be
000000c0: 0145 86bd 0fbf f43d a3bd 53bc 9ce4 943e
000000d0: 3e78 6d3e 43c0 22bf 7ed3 e1be 7a5b 55be
000000e0: 7ede 3cbe 4bec 37be b975 53be c43b 1dbe
000000f0: 4a1c 883d 8cbf 923e 2c2e 28be 0399 4a3e
00000100: f32a 87be 490d 483e b4ec f73d fe51 343b
00000110: 9dcc d9bd fb61 4bbe 748c a2be f492 743e
00000120: 50f7 cb3d f6d7 6dbe 929f 173e 01db 9ebe
00000130: 60f6 bfbd
-0.13849159 -1.3938842 0.3826555 -0.15301639 -0.10332727 0.060713824 0.37281945 0.26590797
-0.14788397 0.19269174 0.14895594 0.15559077 1.0812544 -0.3756293 -0.31263644 0.12425465
-0.06677921 -0.09254611 0.081264496 0.04997562 -0.12481029 -0.9445511 -0.11926206 -0.20023927
-0.1043411 0.14963189 0.12411583 0.14240813 -0.05985034 -0.08419 -0.07241815 -0.157638
-0.14290656 0.21381214 -0.82857037 0.3109618 0.33904076 -0.36967507 -0.051030826 -0.06908541
0.15187973 -0.34696627 -0.113017365 0.74412584 -0.012344484 1.3215212 -0.5843178 -0.2240178
-0.0655613 0.11950504 -0.012923631 0.29080665 0.231904 -0.6357462 -0.44106668 -0.20835677
-0.18444249 -0.17961232 -0.20650376 -0.1535483 0.06646021 0.28661764 -0.16423863 0.19784932
-0.26399955 0.19536318 0.121056944 0.0027514691 -0.1063473 -0.19861595 -0.31747782 0.23884183
0.099592805 -0.23226914 0.14806965 -0.31026462 -0.09373164

layer_stack.0.bias f4 [7]
00000000: ecb6 f6be 4fcd 623e 3db7 763c dc92 69be
00000010: b653 3d3f 40ca ebbd b2bc 1bbe
-0.48186433 0.22148632 0.015058336 -0.22809929 0.7395586 -0.115131855 -0.152087

layer_stack.2.weight f4 [3, 7]
00000000: de19 8e3d f084 02bf c87e 933e c42e ff3e
00000010: 9d2a 38be 369b 2c3d d1c2 43be b567 7fbe
00000020: 5272 683e 4900 8fbe 2808 86be 5ce4 a93e
00000030: 25aa fbbd f4c7 a73e 3290 81be 2388 4fbe
00000040: cd14 f3bd 2d93 82bc 35ab 653e 7ec6 d0bd
00000050: dae9 2d3d
0.069385275 -0.50984097 0.28807664 0.49840367 -0.17985006 0.04214021 -0.19117285 -0.24941905
0.2269986 -0.27929905 -0.26178098 0.33182037 -0.12288312 0.3276974 -0.25305325 -0.20266776
-0.11869202 -0.01593932 0.22428592 -0.101941094 0.042459346

layer_stack.2.bias f4 [3]
00000000: 59fc 663f b46e 853f c408 993e
0.902288 1.0424409 0.298895

layer_stack.4.weight f4 [1, 3]
00000000: 16fe 333f 7712 afbf 2d7d d43e
0.7030958 -1.367751 0.41501752
