Taiko_4layer_ReLU_B.pth (torch, 4220 bytes, 7 tensors)

layer_stack.0.weight f4 [7, 11]
00000000: e0a4 13bd 91ea 20bf 6a06 123f c3ca 08bf
00000010: 0826 24bf ce7e 33be c476 b33f 2689 a73d
00000020: 7dc9 5bbd c4d7 2f3e 0de5 e63e 1a31 b53c
00000030: 186c f33f 2b3f 32be a7ce 4abe 71e9 76be
00000040: c0db 9b3d 4a7d 723f 1cf9 66bb 7f2e 583f
00000050: 38a9 bcbf b571 063d ab3f f4bd 860b 4dbe
00000060: c9b0 d5bd 1a39 193e 7130 fe3d 70d3 113e
00000070: a125 75bd cf6b acbd f84f 94bd db6b 21be
00000080: 1956 12be 3243 c9bc 1b7f c4bf d7c4 023e
00000090: 8c4f e43e d8dd 833d 9dba 65bd f927 59bf
000000a0: ed8c 7e3c cd3a 90bf e61a 593f e7a2 893e
000000b0: 8d94 a3bc 1fd7 733f 2c11 d2be 3c18 73bd
000000c0: 3b54 27bd 504f 0abd 4430 e13e 544d 003d
000000d0: 4c03 c5be 4316 96bd 6d81 eebe 7a5b 55be
000000e0: 7ede 3cbe 4bec 37be b975 53be c43b 1dbe
000000f0: 4a1c 883d 8cbf 923e 2c2e 28be 0399 4a3e
00000100: f32a 87be 490d 483e d2ed f73d f868 343b
00000110: c1ca d9bd e560 4bbe 9a8d a2be c893 743e
00000120: c3fb cb3d 79d7 6dbe 6c9e 173e c4dc 9ebe
00000130: 69f4 bfbd
-0.03604591 -0.6285792 0.5704104 -0.5343439 -0.6412053 -0.17528841 1.4020619 0.08180456
-0.05365895 0.17172152 0.45096627 0.02211814 1.9017363 -0.17406909 -0.19805394 -0.24112488
0.07610273 0.94722426 -0.0035243696 0.8444595 -1.4739141 0.032823283 -0.11926206 -0.20023927
-0.1043411 0.14963189 0.12411583 0.14240813 -0.05985034 -0.08419 -0.07241815 -0.157638
-0.14290656 -0.024568174 -1.535129 0.12770401 0.4459194 0.06438798 -0.05608617 -0.8482662
0.015536529 -1.1267945 0.8480667 0.26882097 -0.019968295 0.95250124 -0.41028726 -0.059349284
-0.040851813 -0.033767045 0.43982136 0.031323746 -0.38479078 -0.07328465 -0.4658312 -0.20835677
-0.18444249 -0.17961232 -0.20650376 -0.1535483 0.06646021 0.28661764 -0.16423863 0.19784932
-0.26399955 0.19536318 0.121059075 0.0027528387 -0.10634375 -0.19861181 -0.31748658 0.23884499
0.09960129 -0.23226728 0.14806527 -0.31027806 -0.093727894

layer_stack.0.bias f4 [7]
00000000: 62a4 6d3e 36a7 683f 3db7 763c 0276 41bf
00000010: ca04 1340 40ca ebbd e8ba 1bbe
0.23207238 0.90880144 0.015058336 -0.7557069 2.2971673 -0.115131855 -0.15208018

layer_stack.2.weight f4 [5, 7]
00000000: 53ec 1fbd 2030 99be c87e 933e 0ad3 54bd
00000010: 6dcd 4b3e 369b 2c3d d1c2 43be 6747 9cbd
00000020: 8405 3f3d 4900 8fbe 624d aabe 068b 173f
00000030: 25aa fbbd 83ca a73e 3290 81be 2388 4fbe
00000040: cd14 f3bd 2d93 82bc 35ab 653e 7ec6 d0bd
00000050: dae9 2d3d 70c6 173e 33c7 c93e c408 993e
00000060: b309 133f 1e50 30bf 4f1b 8b3e 3d73 8f3e
00000070: 3dcf 76be a745 533e 3445 cb3c 32e7 bb3c
00000080: 06a2 4b3d ce3a 913d 7cef 18be
-0.039043736 -0.2991953 0.28807664 -0.051959075 0.19902582 0.04214021 -0.19117285 -0.076308064
0.04663612 -0.27929905 -0.33262163 0.5919651 -0.12288312 0.32771692 -0.25305325 -0.20266776
-0.11869202 -0.01593932 0.22428592 -0.101941094 0.042459346 0.14821792 0.3940979 0.298895
0.57436675 -0.6887225 0.27169272 0.28017607 -0.24102493 0.20632039 0.024813272 0.022937391
0.049715064 0.07091294 -0.14935106

layer_stack.2.bias f4 [5]
00000000: 72bc e33e cdc8 64be 8df1 833e c185 e63e
00000010: db9c 833f
0.4447971 -0.22342224 0.25770226 0.4502392 1.0282243

layer_stack.4.weight f4 [3, 5]
00000000: 2f10 1040 1489 9e3f e835 8e3e 18bb 4c3f
00000010: 158c 3a3f 0cc7 4cc0 b73d f83f b902 5d3e
00000020: 53d3 09bf 4297 6c3f aec7 1b40 85fa 8e3f
00000030: 0961 513e c4f2 323f caae 4f3f
2.2509878 1.2385583 0.27775502 0.7997298 0.7287 -3.1996489 1.9393834 0.2158307
-0.5383808 0.924183 2.4340625 1.1170202 0.20447172 0.6990168 0.8112608

layer_stack.4.bias f4 [3]
00000000: 1e2a 463f 0441 0e3f bd78 1e3f
0.77408016 0.55567956 0.6190298

layer_stack.6.weight f4 [1, 3]
00000000: 1062 983f 255a 20c0 8207 993f
1.1904926 -2.505502 1.1955416
