wii4_5.pth (torch, 9034 bytes, 19 tensors)

layer_stack.0.weight f4 [10, 11]
0	0xbe58b70f	-0.21163581
1	0xbc04daa1	-0.008108766
2	0x3e95f264	0.29286492
3	0xbe4cc2b3	-0.19996147
4	0x3d4f56b3	0.050619792
5	0x3def17d7	0.11674469
6	0x3d4d37d4	0.05010207
7	0xbe65701b	-0.22406046
8	0x3d32243b	0.043491583
9	0x3e832b0d	0.25618783
10	0xbe0e6ece	-0.13909456
11	0x3ea2f5b2	0.31828076
12	0x3ea97c58	0.3310268
13	0x3fdbd11c	1.717319
14	0x4022cc79	2.54373
15	0x3f859ce5	1.0438505
16	0x3f0ebfb0	0.5576124
17	0xc0c69e8e	-6.206855
18	0x3f13a091	0.5766688
19	0xbf9a7e94	-1.2069879
20	0xc125eec5	-10.370793
21	0x3e788fbe	0.24273583
22	0x3e5eff50	0.21777081
23	0x3fd3978d	1.6530625
24	0x3fc38d60	1.5277519
25	0x3f033da5	0.5126594
26	0xbec6e9f4	-0.38850367
27	0x3ef42a74	0.4768864
28	0xbf4050ed	-0.7512348
29	0xbcee2850	-0.029071957
30	0x400f3409	2.237551
31	0x40ba9d50	5.831703
32	0x3f17398b	0.5907218
33	0xbdc7da8a	-0.0975848
34	0x3e6d9317	0.23200642
35	0xbe82d4c2	-0.25552946
36	0x3e974bbf	0.29549977
37	0xbe3cb1de	-0.18427226
38	0xbd37e2e4	-0.044894114
39	0xbd189ca2	-0.03725875
40	0xbdf882f3	-0.121343516
41	0x3e567d94	0.20946342
42	0xbc54824c	-0.012970518
43	0xbe3d3c37	-0.18480001
44	0xbe4f1e3c	-0.20226377
45	0x3b2ee961	0.0026689398
46	0x3d02dbbd	0.03194784
47	0xbe4db492	-0.20088413
48	0x3c7f537c	0.015583869
49	0xbe673d6c	-0.22582024
50	0xbd257741	-0.040396933
51	0x3dc284fe	0.094980225
52	0xbd3d2dad	-0.046186138
53	0xbddbdbb4	-0.107352644
54	0xbd3ce2c8	-0.046114713
55	0x3dd85de1	0.10564781
56	0xbe18da9b	-0.14927141
57	0x3c862759	0.016376184
58	0x3e4a9a5c	0.19785446
59	0xbb2c808f	-0.0026321744
60	0x3e4b444a	0.19850269
61	0xbe8b7b6c	-0.272426
62	0xbe80dd1d	-0.25168696
63	0xbe0c32a8	-0.13691199
64	0x3e2658c2	0.16244796
65	0x3e3a53c4	0.18196017
66	0x3d905aa3	0.070485376
67	0xbfc6b9f6	-1.5525501
68	0x3fd73f68	1.6816225
69	0x4022ee7b	2.5458057
70	0x3fb1eaa1	1.3899728
71	0x3e42dfab	0.19030635
72	0x3f3a7e84	0.728493
73	0x3e503525	0.20332773
74	0xc0298ca1	-2.6492083
75	0xc0294e24	-2.6453943
76	0x3fece79b	1.850818
77	0xbd8d7b29	-0.069082566
78	0x3ed99bfe	0.42501825
79	0x3ffe9a3b	1.9890817
80	0x3fafc42e	1.3731744
81	0x3d95098f	0.07277214
82	0xbc988799	-0.018619346
83	0xc0e60194	-7.1876926
84	0xbc004bc0	-0.00783056
85	0xbf3f9f27	-0.7485222
86	0xc101099e	-8.064848
87	0x3e847434	0.25869906
88	0x3d6ff5a8	0.058583885
89	0xbfc59a6c	-1.5437751
90	0x3fe97e62	1.8241694
91	0x4040ef61	3.0146105
92	0x3e31b701	0.17354967
93	0x3f8324b4	1.0245576
94	0xbf93f91a	-1.1560395
95	0x3e746092	0.23864964
96	0xbf7f12fc	-0.9963834
97	0x403f5d36	2.9900641
98	0x402ce9d1	2.701771
99	0x3e4f0903	0.20218281
100	0x406e6ce3	3.725396
101	0x3fcd3995	1.6033198
102	0x3ee50820	0.4473276
103	0x3d91663c	0.07099578
104	0xbe540379	-0.2070445
105	0x3f06f85a	0.52722704
106	0xbe44c6e9	-0.19216503
107	0x3f70fd9d	0.94136983
108	0xc05b683b	-3.4282367
109	0xbef11af0	-0.47090864

layer_stack.0.bias f4 [10]
0	0xbe777918	-0.24167287
1	0xbf745e08	-0.9545598
2	0x3f9ed5e6	1.2409027
3	0x3e89ccbd	0.26914015
4	0xbe38b816	-0.18038973
5	0x3e96c675	0.29448286
6	0x3ebfe1c9	0.37476948
7	0xbf11f19d	-0.570093
8	0x3e3b4660	0.18288565
9	0x4028b361	2.6359484

layer_stack.2.weight f4 [9, 10]
0	0xbe89a479	-0.26883295
1	0x3f03dea4	0.515116
2	0x3f60c4d9	0.87800366
3	0xbcef6ebe	-0.02922761
4	0x3cc6a14c	0.024246834
5	0xbcb67e8b	-0.022277137
6	0x3f926cf8	1.1439505
7	0x4055a1e7	3.3380067
8	0x3fdc7156	1.7222087
9	0xbe26964f	-0.16268276
10	0x3e07d2c4	0.13263994
11	0x3f35cfa7	0.7101998
12	0xbd64de3d	-0.055876005
13	0x3d814f1e	0.063139185
14	0x3d8b2b0d	0.06795321
15	0xbe085e1d	-0.13317151
16	0xbef174ba	-0.47159368
17	0xc03d0cdb	-2.9539096
18	0xbf224702	-0.633896
19	0xc01cfbbc	-2.4528646
20	0xbc91d653	-0.017802393
21	0xbe06602d	-0.13122626
22	0xbd9e8c04	-0.077415496
23	0x3d35d10d	0.04438882
24	0xbe3ab261	-0.18232109
25	0xbdcc8667	-0.09986573
26	0x3ebaa031	0.3645034
27	0xbe195bce	-0.14976427
28	0xbd777294	-0.060412005
29	0x3e7d9ef8	0.24767673
30	0x3d90811d	0.070558764
31	0x3ea8a40a	0.32937652
32	0xbeb3d345	-0.35122123
33	0xbdb7c34a	-0.08972795
34	0xbe1eac3b	-0.15495388
35	0xbe05679c	-0.13027805
36	0x3cf33a3b	0.029690852
37	0x3f6a537f	0.91533655
38	0xbef278a6	-0.47357672
39	0x3dde1a0e	0.10844813
40	0x3e83950a	0.25699645
41	0x3cb3e1cb	0.021958252
42	0xbde87f8f	-0.11352455
43	0x3dc1d157	0.094637565
44	0xbd339822	-0.043846257
45	0x3cd01089	0.02539851
46	0xbe4f5e38	-0.20250785
47	0xbe528ea3	-0.20562224
48	0xbe801a44	-0.2502004
49	0x3dd5d54e	0.10441075
50	0xbe1410cd	-0.14459534
51	0xbb80d75b	-0.0039319224
52	0xbe4c8cd0	-0.1997559
53	0x3cf0d21b	0.029397061
54	0xbe1d006e	-0.15332195
55	0x3e0cf428	0.13765013
56	0x3e8304a5	0.2558948
57	0xbe8014ac	-0.2501577
58	0xbe9db794	-0.30804121
59	0x3c8e8581	0.017397644
60	0x3e8251ee	0.25453132
61	0x3fa8ed94	1.3197503
62	0x3eb74ec8	0.35802293
63	0x3e8ca620	0.27470493
64	0xbd7ab952	-0.06121189
65	0xbe1f5e97	-0.15563427
66	0xbf86d044	-1.0532308
67	0x400c3f9a	2.191382
68	0xbf940f15	-1.1567103
69	0x3f53b186	0.82692754
70	0xbe77af1e	-0.24187896
71	0x3d85eaf3	0.06538954
72	0x3e8eb499	0.2787216
73	0xbd0bb404	-0.034107223
74	0xbc38e707	-0.01128555
75	0x3d4a9b2a	0.049464382
76	0x3e0f1e9d	0.13976522
77	0xbfda14d7	-1.703761
78	0xbeb236bc	-0.34807384
79	0xbe585525	-0.2112623
80	0xbce45dd1	-0.027876766
81	0x3dc411b9	0.09573693
82	0x3f1aa747	0.60411495
83	0x3db023d9	0.086005874
84	0xbdb72d17	-0.08944147
85	0x3e48edd8	0.1962198
86	0xbe990c9b	-0.2989243
87	0x3f03fe2b	0.51559705
88	0xbe662673	-0.22475605
89	0x3f057902	0.5213777

layer_stack.2.bias f4 [9]
0	0x3f08eadd	0.5348337
1	0x3fb4c801	1.4123536
2	0x3ed1263b	0.4084948
3	0xbfa07e12	-1.2538474
4	0x3e447f1e	0.19189116
5	0xbe8cd6af	-0.2750754
6	0xbfb651d1	-1.4243718
7	0x3eb71426	0.3575756
8	0x3fd8f1bb	1.694877

layer_stack.4.weight f4 [8, 9]
0	0x3e91550b	0.28385195
1	0x3c914efe	0.017737862
2	0xbe5a145a	-0.21296826
3	0x3f2e0fe4	0.67993
4	0xbecd0f83	-0.40050897
5	0x3e81cf8a	0.25353652
6	0xbf0bd89c	-0.54627395
7	0xc021aeb1	-2.5262873
8	0x3e9c70db	0.30554852
9	0x3a815900	0.0009868443
10	0xc01c7ff8	-2.4453106
11	0xbecfd7eb	-0.4059442
12	0x3f7f4990	0.9972162
13	0x3dafc353	0.08582177
14	0x3bd6aa65	0.0065510743
15	0xbde47d58	-0.1115672
16	0x404f1190	3.235447
17	0x3e87bfea	0.26513606
18	0x3cc4c49c	0.024019532
19	0xbd25a3c3	-0.04043938
20	0xc07648ac	-3.8481855
21	0xbf17f0d2	-0.5935184
22	0x3e65b1a4	0.22431046
23	0xbea309f7	-0.3184354
24	0xbe095e21	-0.13414814
25	0xc08ba42b	-4.36379
26	0x4093c4c3	4.617769
27	0xbdc8b28b	-0.09799679
28	0xbe9eeda2	-0.31040674
29	0xbe05cb01	-0.13065721
30	0xc0080ff5	-2.125974
31	0xbe928966	-0.28620452
32	0x3d98bef0	0.074582934
33	0x3f386eca	0.7204405
34	0x3f396902	0.72425854
35	0x3e1e378d	0.15450878
36	0xbd2db3c2	-0.04240776
37	0xc017596c	-2.3648329
38	0xbee1ad67	-0.44077608
39	0x3f4c2c5e	0.797552
40	0x3c082443	0.008309427
41	0xbe5b45a7	-0.21413289
42	0x3ea0fc35	0.3144242
43	0xc08975ae	-4.295615
44	0xbea5e2d6	-0.32399625
45	0x3b95500a	0.0045566605
46	0xc08bb589	-4.36591
47	0x3f990950	1.1955967
48	0x3fcc2532	1.5948851
49	0xbc4763ce	-0.012169791
50	0x3e398854	0.18118411
51	0xbe86ab71	-0.26302674
52	0x40398af3	2.8991058
53	0x3ec97280	0.3934517
54	0xbccb09c1	-0.024784924
55	0x3efcca51	0.49373105
56	0x4016981a	2.3530335
57	0xbe586644	-0.21132761
58	0xbe8e2a84	-0.27766812
59	0x3e2bf20b	0.16791551
60	0xbb581c47	-0.003297584
61	0xc1236b82	-10.213747
62	0x3ef2aff0	0.47399855
63	0xbcf1cd82	-0.02951694
64	0xbf25180d	-0.64489824
65	0x3f876ea8	1.0580645
66	0xbd88e50f	-0.066843145
67	0xbd19378d	-0.037406493
68	0x3da0c227	0.078495316
69	0x3eb30a26	0.3496868
70	0xbf6cc54e	-0.92488563
71	0x3eba5b92	0.36397988

layer_stack.4.bias f4 [8]
0	0xc0304689	-2.7543051
1	0x3f134c11	0.57537943
2	0xbe110cfe	-0.14165112
3	0xbf847b2d	-1.035009
4	0xbf9123ca	-1.1339047
5	0x40487afa	3.132506
6	0xbe9374ed	-0.28800145
7	0xbeae2595	-0.34013048

layer_stack.6.weight f4 [7, 8]
0	0x3e1b525f	0.15168141
1	0x3f02671f	0.509386
2	0xbdeb10cc	-0.11477813
3	0xbe60e848	-0.21963608
4	0xbfb53958	-1.4158125
5	0xbf556287	-0.83353466
6	0x3eaba35b	0.33523068
7	0x3ead12ea	0.33803493
8	0xbc8610ed	-0.016365493
9	0x3f66b10f	0.9011392
10	0xc009ac20	-2.1511307
11	0xbb939d57	-0.0045048404
12	0xc0120e0a	-2.2821069
13	0x3de2d3c0	0.11075544
14	0xbf0ba17f	-0.545433
15	0x3f58fdef	0.8476247
16	0x3deef65e	0.116680846
17	0x3e344870	0.17605758
18	0x3de9da25	0.11418561
19	0xc00b10e2	-2.1729054
20	0xc00fc372	-2.246304
21	0xbfd1633d	-1.635841
22	0x3fba1549	1.4537746
23	0x3e2b1ad4	0.16709453
24	0x3ede7390	0.43447542
25	0x3fe8ecca	1.8197262
26	0x3d3a90bd	0.04554819
27	0xbe830288	-0.2558787
28	0x3f75fd3f	0.9608955
29	0xbf63591a	-0.88807833
30	0x3fd21b4d	1.6414582
31	0x3f513e95	0.8173612
32	0x3d45b831	0.04827136
33	0xbf54bfcd	-0.83105165
34	0xbed9ab57	-0.42513534
35	0xbe232e2b	-0.1593558
36	0xbcccdd8e	-0.02500799
37	0xc021f05f	-2.530296
38	0xbeae5e21	-0.3405619
39	0xbf4930f3	-0.78590316
40	0xbf093888	-0.53601885
41	0x3ef00d50	0.46885157
42	0x3e9c242d	0.3049635
43	0x3e94a7c8	0.29034257
44	0xbe3b7b5e	-0.1830878
45	0xbe05f32b	-0.13081042
46	0xbf29faba	-0.66398203
47	0xbd3d8e5a	-0.046278335
48	0xbe806eac	-0.25084436
49	0xbd43f725	-0.047843117
50	0x3e1d36e7	0.15352975
51	0x3dba6052	0.09100403
52	0xbe496c50	-0.19670224
53	0xbe239a12	-0.15976742
54	0xbc7ebb55	-0.015547593
55	0xbe640b31	-0.22269894

layer_stack.6.bias f4 [7]
0	0xbf508687	-0.8145527
1	0x3fbe9b40	1.4891129
2	0xc083fdf6	-4.124751
3	0x3fb9ffe8	1.4531221
4	0x3f862f48	1.0483179
5	0xbfcefead	-1.6171471
6	0xbd9418b4	-0.07231274

layer_stack.8.weight f4 [6, 7]
0	0x3ea56837	0.32306072
1	0xbef3af68	-0.47594762
2	0x3e6ceaca	0.2313644
3	0x3d8b15ca	0.06791265
4	0xbecc8656	-0.3994624
5	0xbeda125c	-0.42592132
6	0xbb1b60fb	-0.0023708928
7	0x3e439bf5	0.19102462
8	0x3e6c6a58	0.23087442
9	0x3decd8a1	0.11564756
10	0xbed9f28a	-0.42567855
11	0xbe9175b7	-0.28410122
12	0xbe94e794	-0.2908293
13	0x3e4f1e06	0.20226297
14	0x3d74fc49	0.05981091
15	0xbd06dfb5	-0.032928187
16	0xbf409c78	-0.7523875
17	0xbd301bde	-0.042995326
18	0x3f281aef	0.656661
19	0xbfb59a25	-1.4187666
20	0x3d4fc24f	0.050722416
21	0xbfb34b2b	-1.4007314
22	0xbd886943	-0.06660702
23	0xbe93d3c3	-0.288725
24	0x3dea90ff	0.11453437
25	0xbdfd9c0b	-0.123832785
26	0x3edcbb4e	0.43111652
27	0x3e93b21e	0.2884683
28	0xc056bb84	-3.355195
29	0x3eb1508c	0.34631765
30	0xbe166077	-0.14685236
31	0x3eb9664f	0.36210868
32	0xbcbea008	-0.023269668
33	0x3e6668fd	0.22500987
34	0xbe8a6e50	-0.27037287
35	0x3f9a0849	1.2033778
36	0xc08e9588	-4.4557533
37	0x3f2f327c	0.6843641
38	0x3f586a8d	0.84537584
39	0xc006f7b8	-2.1088696
40	0xbefaae1d	-0.48960963
41	0x3de49a63	0.111622594

layer_stack.8.bias f4 [6]
0	0xc075ec20	-3.842537
1	0xbe2fa8d6	-0.1715425
2	0x3fdc4a07	1.7210091
3	0x3f0c788e	0.5487145
4	0xbd708dfd	-0.05872916
5	0x3f0b4fc6	0.544186

layer_stack.10.weight f4 [5, 6]
0	0x3e0f497e	0.13992879
1	0xbe10b4c4	-0.14131457
2	0xc0ed27b1	-7.411095
3	0xbf7e86de	-0.9942454
4	0x3f605d02	0.8764192
5	0x3f20b043	0.62768954
6	0x3c5d185d	0.013494578
7	0x3ddaedd5	0.10689894
8	0xbea53e05	-0.3227388
9	0x3bf57665	0.0074909204
10	0xbed0edb7	-0.40806362
11	0xbeb06bd9	-0.3445728
12	0x3f04ebb2	0.5192214
13	0x3e8bfb35	0.27340093
14	0xbeaf7de8	-0.34275746
15	0x3dc8a39f	0.09796833
16	0x3d441a9b	0.047876935
17	0xbcce4abf	-0.025182126
18	0x3e6176e3	0.22018008
19	0x3e25e657	0.16201149
20	0xbe9c40ca	-0.3051818
21	0xbea9ad40	-0.33139992
22	0xbde4e3d4	-0.11176267
23	0xbe6903ee	-0.22755405
24	0x3e84760f	0.25871322
25	0xbe8b0094	-0.2714888
26	0xc0767cf6	-3.851377
27	0xbf9b075f	-1.2111624
28	0x3f16cbff	0.58905023
29	0x3e45554d	0.19270821

layer_stack.10.bias f4 [5]
0	0x3ea828b9	0.3284357
1	0x3de35301	0.11099816
2	0xbff7d2f3	-1.9361252
3	0xbe0533bb	-0.13008015
4	0x3f42c506	0.76081884

layer_stack.12.weight f4 [4, 5]
0	0x3f0d0b08	0.5509496
1	0xbc6405ac	-0.013917368
2	0xc0d58f97	-6.673778
3	0xbe09759e	-0.13423774
4	0x3ebfea60	0.374835
5	0xbec5d2a6	-0.38637275
6	0xbcc10c75	-0.02356551
7	0x3e97145c	0.2950772
8	0xbed99bf7	-0.42501804
9	0xbecd427e	-0.40089792
10	0xbe8a7012	-0.27038628
11	0xbd2bb4a0	-0.041920304
12	0x3ec637f7	0.38714573
13	0xbe41f0c2	-0.18939498
14	0xbe8d13b4	-0.27554095
15	0xbe26076b	-0.16213767
16	0x3e4b0139	0.19824685
17	0xbd41455d	-0.04718529
18	0x3e9d8bf2	0.30770832
19	0x3d9f0aa9	0.07765705

layer_stack.12.bias f4 [4]
0	0x3e618dcf	0.22026752
1	0xbeb5cf27	-0.35509607
2	0xbc2442d3	-0.010025698
3	0xbea3ebd0	-0.32015848

layer_stack.14.weight f4 [3, 4]
0	0xbeb08645	-0.3447744
1	0xbe4763d4	-0.19471675
2	0xbdaf8968	-0.0857113
3	0xbee68960	-0.45026684
4	0x3ec55e92	0.38548714
5	0x3ea49be6	0.3215019
6	0xbe6a1a10	-0.22861505
7	0xbe65833c	-0.22413343
8	0x3e3ff2a3	0.18744902
9	0xbecbcacc	-0.3980316
10	0xbe582dbc	-0.21111196
11	0xbeff73c0	-0.49892998

layer_stack.14.bias f4 [3]
0	0x3e8b92c9	0.27260426
1	0x3f5777b1	0.8416701
2	0x3dec42fa	0.11536212

layer_stack.16.weight f4 [2, 3]
0	0x3ed6c2ed	0.41945592
1	0xbe9f56b3	-0.31120834
2	0xbe0a26e4	-0.13491398
3	0xbe9c8426	-0.3056957
4	0x3f1f8ad9	0.6232124
5	0x3eac043d	0.33596984

layer_stack.16.bias f4 [2]
0	0xbeefdfe0	-0.4685049
1	0x3f13d925	0.5775321

layer_stack.18.weight f4 [1, 2]
0	0x3e15c453	0.14625673
1	0x3f5b73d3	0.8572361
