wii4_3.pth (torch, 1979 bytes, 3 tensors)

c f4 [11]
52.510727 62.53795 53.247627 59.28085 203.72089 60.48505 55.077732 59.915104
75.59622 52.291744 52.57457
00000000: fc0a 5242 dc26 7a42 92fd 5442 971f 6d42
00000010: 8cb8 4b43 b1f0 7142 994f 5c42 11a9 6f42
00000020: 4431 9742 bf2a 5142 5c4c 5242

w f4 [11, 11]
0.37679544 -15.56837 57.62825 70.46881 -16.789564 -3.695151 58.67029 -0.6050505
-20.345078 31.89949 30.141289 5.057641 89.4951 33.563374 17.80876 38.11753
67.08218 34.89284 -5.40454 -4.1575 19.178587 45.998985 0.30530828 -15.882353
56.540462 70.157486 -16.850578 -4.1734576 57.759705 -0.6137704 -19.913073 33.567287
30.47424 -0.45224956 -14.703774 56.90354 75.19977 -29.500214 -8.598814 81.46959
-0.75642246 -11.432266 3.5087628 27.148016 2.2879803 115.52172 106.76344 -64.517876
83.42237 6.352187 -361.3813 -1.5152669 -12.854917 -63.958225 -6.7625556 28.451841
261.54483 -22.341715 13.6122 -69.54679 -2.8360968 307.57837 11.507096 107.17743
-296.54605 -80.139824 -0.04049999 -9.002845 58.70815 73.48171 -17.70771 -6.8726697
57.25135 -0.6783959 -20.556131 49.85313 31.963799 -0.42381233 -15.194606 57.474754
76.25723 -28.089697 -9.298538 81.00357 -0.7321993 -12.166356 2.1031766 26.758354
-3.0495028 -18.027235 50.456585 80.15548 -51.089455 3.9323752 -37.6482 -1.4802197
21.80271 -35.61188 26.440346 0.39531353 -16.064932 56.023624 69.72477 -16.229183
-3.4812934 58.02972 -0.58962923 -20.082287 31.135315 29.672228 0.29618898 -15.406852
58.012314 70.907364 -17.422262 -4.2739058 58.68549 -0.6346609 -20.24734 34.17603
31.482128
00000000: 55eb c03e 0b18 79c1 5483 6642 08f0 8c42
00000010: 0751 86c1 5b7d 6cc0 61ae 6a42 97e4 1abf
00000020: b8c2 a2c1 2832 ff41 5c21 f141 32d8 a140
00000030: 7efd b242 e540 0642 5778 8e41 5a78 1842
00000040: 132a 8642 4592 0b42 fef1 acc0 3d0a 85c0
00000050: bf6d 9941 f6fe 3742 5e51 9c3e 1e1e 7ec1
00000060: 6f29 6242 a250 8c42 fccd 86c1 f78c 85c0
00000070: f009 6742 0f20 1dbf f94d 9fc1 e744 0642
00000080: 3ecb f341 418d e7be a942 6bc1 3a9d 6342
00000090: 4866 9642 7000 ecc1 be94 09c1 6ef0 a242
000000a0: e7a4 41bf 90ea 36c1 928f 6040 232f d941
000000b0: 456e 1240 1f0b e742 e286 d542 2709 81c2
000000c0: 41d8 a642 1e45 cb40 ceb0 b4c3 44f4 c1bf
000000d0: bdad 4dc1 39d5 7fc2 db66 d8c0 5f9d e341
000000e0: bdc5 8243 d5bb b2c1 92cb 5941 f517 8bc2
000000f0: 9c82 35c0 08ca 9943 111d 3841 d85a d642
00000100: e545 94c3 9747 a0c2 51e3 25bd a70b 10c1
00000110: 25d5 6a42 a3f6 9242 64a9 8dc1 e9ec dbc0
00000120: 6201 6542 5bab 2dbf f572 a4c1 9b69 4742
00000130: dcb5 ff41 eefd d8be 1b1d 73c1 26e6 6542
00000140: b483 9842 b3b7 e0c1 d0c6 14c1 d401 a242
00000150: 6a71 3bbf 65a9 42c1 729a 0640 1c11 d641
00000160: 0e2b 43c0 c737 90c1 8bd3 4942 9b4f a042
00000170: 9a5b 4cc2 09ac 7b40 c297 16c2 d777 bdbf
00000180: f36b ae41 9172 0ec2 d485 d341 8966 ca3e
00000190: fb84 80c1 3118 6042 1573 8b42 5ed5 81c1
000001a0: 83cd 5ec0 6f1e 6842 f1f1 16bf 86a8 a0c1
000001b0: 2015 f941 b960 ed41 15a6 973e 7782 76c1
000001c0: 9c0c 6842 92d0 8d42 cb60 8bc1 d6c3 88c0
000001d0: f1bd 6a42 2379 22bf 8dfa a1c1 41b4 0842
000001e0: 66db fb41

b_inside f4 [11]
-1.8296494 -6.2492576 -1.7615124 -1.1205407 -5.0150576 -26.738922 -1.7013288 -1.2477547
0.31754062 -1.7640631 -1.7644097
00000000: f431 eabf ebf9 c7c0 3d79 e1bf e16d 8fbf
00000010: 5a7b a0c0 50e9 d5c1 24c5 d9bf 6db6 9fbf
00000020: af94 a23e d2cc e1bf 2dd8 e1bf
